output/models/251017_1846_training_example2/epoch_00_iou_1.00_statedict.pt (torch, 275454 bytes, 20 tensors)

features.0.weight f4 [16, 1, 11, 11]
0	0xbc283e9f	-0.010268836
1	0x3d302e2d	0.043012787
2	0xbc8cada7	-0.017172648
3	0x3ce5d6f4	0.0280566
4	0x3da9378e	0.08262549
5	0x3d150f73	0.036391687
6	0x3d90d1da	0.07071276
7	0xbcd4dfda	-0.025985647
8	0x3c828788	0.015933767
9	0x3d4a76c8	0.049429685
10	0x3c6cace0	0.0144455135
11	0x3d519e48	0.05117634
12	0x3cbad7ad	0.02280792
13	0x3d8f01d8	0.069827735
14	0x3d17316f	0.036912378
15	0x3d797e4b	0.060911458
16	0x3c5f705c	0.013637628
17	0x3d81c6ee	0.06336771
18	0xbc1a3806	-0.009412771
19	0x3d5f4669	0.054510508
20	0x3c93e69c	0.018054299
21	0xbc23295d	-0.009958592
22	0x3d93b4fc	0.072122544
23	0x3d45ac8f	0.048260268
24	0x3c521646	0.012822693
25	0x3abf41f1	0.0014591796
26	0x3d689560	0.05678308
27	0x3ce1820f	0.027527837
28	0x3c9f73df	0.019464431
29	0x3d70db93	0.058803152
30	0x3d77a89a	0.060463525
31	0x3c5c5080	0.013446927
32	0x3d1687f1	0.036750738
33	0x3d1c3e8c	0.038145587
34	0xbaaa5946	-0.0012996576
35	0x3c7d2d87	0.015452749
36	0x3d1368a0	0.03598845
37	0x3dac2f34	0.08407441
38	0x3c50da4d	0.012747359
39	0x3d0d2568	0.0344595
40	0x3d9a10fd	0.075227715
41	0xbbb1df80	-0.0054282546
42	0x3d1e66ec	0.038672373
43	0x3c244649	0.010026523
44	0xbd141044	-0.036148325
45	0x3d8c09d7	0.06837814
46	0xbbe9caf2	-0.0071347887
47	0x3caa007c	0.020752184
48	0xbbea667c	-0.0071533304
49	0x3c2d1831	0.01056485
50	0x3c7f0fbb	0.015567715
51	0x3c6ed0d7	0.0145761585
52	0x3ce92456	0.02845971
53	0x3b7c464b	0.0038494046
54	0x3cd624ed	0.026140654
55	0x3c74ba43	0.014936986
56	0x3d134926	0.03595843
57	0x3c56dbab	0.013113896
58	0x3ce951c2	0.028481368
59	0xbcfa29eb	-0.030537566
60	0xbca1177b	-0.019664517
61	0x3d2dc7e2	0.04242695
62	0x3d0ea7a2	0.034827836
63	0x3ac7922c	0.0015226058
64	0xbd813eea	-0.06310828
65	0xbd4edbcf	-0.050502595
66	0xbd1cb62a	-0.038259663
67	0x3d297fe9	0.04138175
68	0xbcf80aa2	-0.030278508
69	0x3b81ce83	0.0039613857
70	0xbd7e0bab	-0.062022846
71	0xbd16f0ae	-0.036850624
72	0xbd0e5443	-0.034748327
73	0x3cda7c00	0.026670456
74	0xbd791b97	-0.060817327
75	0xbd85770d	-0.06516848
76	0xbd850e43	-0.06496861
77	0xbd0935c2	-0.033498533
78	0xbc59090a	-0.013246784
79	0xbd069d3e	-0.0328648
80	0x3cbd9a93	0.023144996
81	0x3a02777a	0.000497691
82	0x3c18b68e	0.009320868
83	0xbd833f26	-0.06408529
84	0xbd71af9d	-0.05900537
85	0xbd6bce49	-0.057569776
86	0xbd846e47	-0.06466346
87	0xbb965bdd	-0.0045885877
88	0xbae87b17	-0.0017736879
89	0x3d1524a5	0.0364119
90	0xbb608677	-0.0034259835
91	0x3c454a9d	0.012041715
92	0xbdb5e449	-0.088814326
93	0xbd8400e5	-0.06445483
94	0xbcc0b281	-0.023522617
95	0xbc93b336	-0.01802979
96	0xbdc4ebfb	-0.09615322
97	0xbd5a43ea	-0.053287424
98	0xbd92cf35	-0.07168428
99	0xbce95d0d	-0.028486753
100	0xbcc7786a	-0.02434941
101	0xbcea4ee4	-0.028602071
102	0xbda5dae0	-0.08098388
103	0xbd321d94	-0.04348524
104	0xbd6e43a2	-0.05816997
105	0xbd26b663	-0.04070128
106	0xbd6375be	-0.05553221
107	0xbd8bd3b5	-0.06827489
108	0xbd9f1060	-0.07766795
109	0xbbc78043	-0.006088288
110	0x3c39dba9	0.011343875
111	0xbafa21cc	-0.0019083559
112	0x3c458504	0.012055639
113	0x3ce9f9e9	0.02856155
114	0xba72583a	-0.0009244714
115	0x3a42393c	0.0007409041
116	0xbca94672	-0.020663474
117	0xbd27472a	-0.04083935
118	0xbda7799e	-0.081774935
119	0xbcd9820b	-0.026551267
120	0xbd250af0	-0.040293634
121	0xbd191843	-0.037376653
122	0xbce40f90	-0.027839452
123	0x3cf6967c	0.030101053
124	0x3d666711	0.056250636
125	0x3ce19d85	0.027540931
126	0x3aa5135e	0.0012594273
127	0xbd379c6d	-0.044826914
128	0xbc396d74	-0.0113176
129	0xbb843b45	-0.004035386
130	0xbd0cc4de	-0.034367435
131	0x3cf495b0	0.029856533
132	0xbd3b1832	-0.04567737
133	0x3b5e63e7	0.0033934058
134	0xbc3f9fef	-0.011695846
135	0xbd0b625a	-0.034029342
136	0x3d53773f	0.051627394
137	0x3c67f232	0.014156865
138	0x3cfdf09f	0.030998526
139	0x3c6b2d24	0.014354024
140	0xbd367eed	-0.04455464
141	0x3d4c623c	0.04989837
142	0xbca7adb7	-0.020468576
143	0xbcd13b8d	-0.025541091
144	0x3d2d3ddc	0.04229532
145	0x3cb4fb13	0.022092378
146	0x3bbb28f6	0.00571167
147	0xbce06e36	-0.027396303
148	0x3d1b4546	0.03790786
149	0xbc47acd9	-0.012187206
150	0xbc12ab08	-0.00895191
151	0x3d377171	0.04478592
152	0xbc8bb26b	-0.01705285
153	0xbc29a56c	-0.010354381
154	0xbb9cf2a1	-0.004789666
155	0xbd43b4e9	-0.04777995
156	0x3a999268	0.0011716606
157	0xbcd740b5	-0.026275972
158	0x3cd1dbbf	0.025617478
159	0xbbfefee4	-0.00778185
160	0xb9f3b489	-0.0004648308
161	0xbc19e6ea	-0.009393433
162	0x3cfe7345	0.031060824
163	0xbc9f165e	-0.019419845
164	0x3d56d1a4	0.052446023
165	0x3d58227b	0.05276726
166	0xbc1d0ee6	-0.009586072
167	0x3d0a3d5c	0.033749923
168	0x3ced4403	0.028963095
169	0x3c88edd2	0.016714964
170	0x3c7e6b56	0.015528521
171	0x3c0d8ff2	0.008640276
172	0x3d26b480	0.040699482
173	0xbcc33260	-0.023827732
174	0xbcc4e53c	-0.024035089
175	0xbc1be510	-0.009515062
176	0x3d66965e	0.056295745
177	0x3d69f705	0.05712034
178	0x3d32f367	0.043689158
179	0x3c9bd39a	0.019021798
180	0x3d65e016	0.056121908
181	0x3caea7ed	0.021320308
182	0xbd42ad52	-0.047528572
183	0xbc3f4047	-0.01167304
184	0xbb1da4c9	-0.0024054518
185	0xbd331cab	-0.04372851
186	0x3d1bac5a	0.038006164
187	0x3ca79014	0.020454444
188	0x3cbd934a	0.023141522
189	0x3b9ae796	0.004727314
190	0xbcdfffc9	-0.027343648
191	0x3c538da3	0.012912187
192	0xbb4dd1d6	-0.003140559
193	0x3cb5ee62	0.022208396
194	0xbd1dc832	-0.038521
195	0x3c57b846	0.013166493
196	0x3d5b0464	0.053470984
197	0xbc12a8c3	-0.008951369
198	0xbd414f36	-0.047194682
199	0x3d48c3b7	0.049014773
200	0xbccd7808	-0.02508165
201	0x3c0d9f73	0.008643973
202	0xbd27adef	-0.04093736
203	0xbd4acb08	-0.049510032
204	0xbb2b7149	-0.0026160053
205	0xbd11ef75	-0.035628755
206	0x3ceb9593	0.028757846
207	0xbbd77542	-0.0065752575
208	0xbd41aa62	-0.04728163
209	0xbd44baae	-0.048029594
210	0x3d0d5f8b	0.034514945
211	0x3bbca9b6	0.005757536
212	0xbcea2fe5	-0.028587291
213	0x3b64aa1b	0.003489143
214	0xbcc90f84	-0.024543531
215	0xbd249286	-0.0401788
216	0xbc7756b3	-0.015096354
217	0x3d280735	0.0410225
218	0x3d0c6654	0.034277275
219	0x3c33bc0e	0.010970129
220	0x3c6725fd	0.014108178
221	0xbd25b076	-0.04045149
222	0x3ce9000a	0.028442401
223	0xbd068975	-0.032845933
224	0x3c5ea059	0.013588035
225	0xbd4af3d9	-0.049548957
226	0x3d039daa	0.032132782
227	0xbd2af59e	-0.041738145
228	0xbcafb206	-0.021447193
229	0x3c0239d5	0.007948359
230	0x3d20876d	0.039191652
231	0x3c133d4e	0.008986784
232	0x3a042d64	0.0005042164
233	0xbcb8c1ba	-0.022553314
234	0x3d48d1b3	0.04902811
235	0xbbf8836f	-0.0075840275
236	0x3cdd6f5f	0.027030645
237	0xbb81e12a	-0.003963609
238	0xbcf0af53	-0.029380476
239	0x3ad0fcde	0.0015944501
240	0x3cc673c7	0.024225129
241	0x3d58c9d6	0.05292686
242	0x3d80cf47	0.06289535
243	0xbd1932b1	-0.03740186
244	0xbd201b4d	-0.039088536
245	0x3d37c6f2	0.044867463
246	0xbd5b754f	-0.05357867
247	0xbc174682	-0.009233119
248	0xbd44d524	-0.04805483
249	0xbd138ab9	-0.036020968
250	0x3b1dc2e1	0.0024072456
251	0xbd3983dd	-0.04529177
252	0xbd14e2a0	-0.03634894
253	0x3d4e040c	0.05029683
254	0x3ca3ada9	0.019980269
255	0xbc93e723	-0.01805455

features.0.bias f4 [16]
0	0xbbe6ca18	-0.0070431344
1	0xbdade461	-0.084908254
2	0x3d560f19	0.052260492
3	0xbd167153	-0.03672917
4	0xbd4d2368	-0.050082594
5	0xbc03c748	-0.008043118
6	0x3b606e7e	0.0034245546
7	0xbd8a6516	-0.06757562
8	0xbd8e95a4	-0.069621354
9	0x3caae14f	0.020859389
10	0xbc020662	-0.007936092
11	0x3d5a3169	0.053269777
12	0xbc10774f	-0.008817508
13	0xbdcd32de	-0.10019468
14	0xbce7ef3f	-0.028312324
15	0xbda4e273	-0.08051004

features.2.weight f4 [16, 16, 5, 5]
0	0x3de54c8f	0.11196243
1	0x3cde6ecb	0.02715244
2	0x3cdc0200	0.026856422
3	0x3dcf3145	0.10116819
4	0x3de59928	0.11210853
5	0xbc81e868	-0.01585789
6	0x3dfaa6f9	0.12238879
7	0x3ceadf03	0.028670793
8	0x3d0edf76	0.034881078
9	0x3cc6cc92	0.024267469
10	0xbc915e12	-0.017745052
11	0x3dfbddce	0.12298165
12	0x3d27dc6b	0.04098169
13	0x3dd5e1c9	0.10443456
14	0x3dd243a9	0.102668114
15	0xbcfc2315	-0.030778447
16	0x3d8c7d3f	0.06859826
17	0x3e05648d	0.13026638
18	0x3dda3895	0.106553234
19	0x3deefec7	0.11669689
20	0xbcb49189	-0.022042053
21	0x3de28e0e	0.11062251
22	0x3db35e9e	0.08758281
23	0x3da62bb4	0.081138045
24	0x3ce3746e	0.027765479
25	0xbc91aa6a	-0.017781455
26	0xbc1fd03d	-0.009754238
27	0xbd4e63aa	-0.050388016
28	0x3c2a81a3	0.010406884
29	0x3d4f62fd	0.050631512
30	0xbda05942	-0.078295246
31	0x3cf873b2	0.030328605
32	0x3d40ae49	0.04704121
33	0xbd09bd2e	-0.03362768
34	0x3d46fd27	0.04858127
35	0xbd544786	-0.051826023
36	0xb922e724	-0.0001553563
37	0x3c2081d9	0.009796583
38	0x3d6e597a	0.0581908
39	0xbc887e12	-0.016661678
40	0xbd3b8158	-0.04577765
41	0x3c909452	0.01764885
42	0xbda06eca	-0.07833631
43	0x3c91c80d	0.017795587
44	0xbd9e60d5	-0.07733313
45	0xbcae2793	-0.021259105
46	0xbd574b54	-0.052562073
47	0xbab13e81	-0.0013522656
48	0x3d8b935e	0.068152174
49	0xba952b56	-0.0011380713
50	0x3c02f83f	0.007993757
51	0xbbbf9d02	-0.005847574
52	0xbd0f3177	-0.034959283
53	0xbd8dc293	-0.06921878
54	0xbba6e95f	-0.005093738
55	0x3cefd710	0.029277354
56	0x3d5882b5	0.052859027
57	0xbd780dd4	-0.060560063
58	0xbad3f451	-0.0016170834
59	0xbd88a50e	-0.06672107
60	0x3da5ce9f	0.080960505
61	0xbcad8ed0	-0.021186262
62	0x3cc8c756	0.024509113
63	0xbd6fe65a	-0.05856929
64	0x3ca84c40	0.020544171
65	0xbd751974	-0.059838727
66	0xbca7ac6e	-0.020467963
67	0x3d7b7d2b	0.061398666
68	0x3d4c917b	0.04994343
69	0xbd21967e	-0.03945016
70	0x3d2a531c	0.041583166
71	0xbda24f79	-0.079253145
72	0xbda09354	-0.078406006
73	0x3d8a749a	0.06760521
74	0xbd95a778	-0.07307333
75	0xbd3530c6	-0.044235967
76	0xbcfaf18e	-0.03063276
77	0xbd52abcc	-0.05143337
78	0xbd34b66d	-0.044119287
79	0xbda6b617	-0.081402
80	0xbdd66640	-0.104687214
81	0xbdae4f27	-0.08511191
82	0xbdc5b5d1	-0.09653819
83	0xbd98fb30	-0.07469785
84	0x3d4afc35	0.04955693
85	0x3d831cbb	0.06401964
86	0xbd20e2d8	-0.039278835
87	0xbda1476d	-0.078749515
88	0x3c0bcaaf	0.00853221
89	0xbd8d4248	-0.06897408
90	0xbbdac187	-0.0066759023
91	0x3d53fcb2	0.05175466
92	0xbc5488d3	-0.012972075
93	0xbca655b6	-0.020304542
94	0xbc0389bb	-0.008028443
95	0xbccb82de	-0.024842676
96	0x3d8eb3a6	0.06967859
97	0xbbfe9520	-0.007769242
98	0x3db82f59	0.08993406
99	0x3c8f54cd	0.01749649
100	0x3cc2d9df	0.02378553
101	0xbc023787	-0.007947809
102	0x3cecc7ff	0.02890396
103	0x3d414eee	0.047194414
104	0xbd2e4baa	-0.042552628
105	0xbc8a9b98	-0.016919896
106	0xbd1fdf3c	-0.039031252
107	0xbc3731eb	-0.011181335
108	0xbce5477a	-0.027988184
109	0x3c89c8b7	0.016819341
110	0xba863976	-0.0010240513
111	0xbd5512c8	-0.052019864
112	0xbcb113dc	-0.021615915
113	0xbbddd502	-0.0067697773
114	0xbd9046bc	-0.070447415
115	0x3c51689e	0.01278129
116	0x3d66f5b8	0.05638668
117	0x3d6168bc	0.055031523
118	0xba3149f7	-0.0006763036
119	0x3d9300ef	0.071779124
120	0xbd340e76	-0.043959104
121	0x3d36cf2e	0.044631176
122	0xbd18dbbc	-0.03731893
123	0xbd0e2ac3	-0.03470875
124	0x3db0014b	0.085939966
125	0x3d0ba15e	0.03408944
126	0xbcec9fef	-0.028884856
127	0x3c1c3cd9	0.009535992
128	0x3b975a08	0.004618887
129	0xbd73924a	-0.059465684
130	0xbce3d3aa	-0.02781089
131	0xbb373105	-0.0027952802
132	0x3b9c6760	0.0047730654
133	0xbd7cde2e	-0.061735325
134	0x3cf6f7f3	0.030147528
135	0xbcf2c762	-0.029636089
136	0xbcc92114	-0.024551906
137	0xbdb17ee7	-0.08666783
138	0x3d0a473b	0.033759337
139	0x3b35903c	0.0027704379
140	0x3d722e07	0.059125926
141	0x3d93d956	0.07219188
142	0x3d209a77	0.03920981
143	0xbd080391	-0.033206526
144	0x3d49c237	0.049257483
145	0x3cd235a5	0.025660345
146	0x3da8a865	0.08235244
147	0x3d996bea	0.07491286
148	0x3d12aa57	0.03580698
149	0xbd9e850f	-0.07740223
150	0x3d010ec9	0.03150824
151	0xbd52d94a	-0.051476754
152	0x3d871c47	0.0659719
153	0x3e233477	0.15937982
154	0x3b8934bd	0.004187195
155	0x3d7e81f9	0.06213567
156	0xbd696d66	-0.056989096
157	0x3dd047b3	0.101699255
158	0x3da73826	0.08165006
159	0x3d4d0f2a	0.05006329
160	0x3d83b468	0.06430894
161	0x3d0e8d65	0.034802813
162	0x3db16141	0.08661128
163	0x3cfd88a1	0.030948939
164	0x3d0ca9ee	0.034341745
165	0x3dac3bf3	0.08409872
166	0x3d7c46f1	0.061591092
167	0x3e326e5c	0.17424911
168	0x3dace5ee	0.08442293
169	0x3daa26b4	0.08308163
170	0x3dc2ad1e	0.09505676
171	0x3e1dd1d3	0.15412073
172	0x3d65de86	0.056120418
173	0x3cc44575	0.023958901
174	0xbc2527c7	-0.010080284
175	0x3ba00a5d	0.004884048
176	0xbb790317	-0.0037996226
177	0x3d9c8390	0.07642281
178	0xbd604a43	-0.05475832
179	0xbd940e87	-0.07229333
180	0xbd3e0230	-0.046388805
181	0x3da7c7ff	0.08192443
182	0xbd2cad37	-0.042157378
183	0xbc7193f5	-0.014744748
184	0x3dab9816	0.083786175
185	0xbd0e8df9	-0.034803364
186	0x3daececa	0.08535536
187	0xbb5bffe2	-0.0033569266
188	0xbceb5a46	-0.02872957
189	0xbc63bb3a	-0.013899619
190	0x3cdf8b6f	0.027288167
191	0xbd3b4992	-0.04572446
192	0x3d95b57d	0.07310007
193	0x3d9bb609	0.0760308
194	0x3d44878a	0.047980823
195	0xbda30a0b	-0.079609
196	0xbda966c5	-0.08271555
197	0x3daff88d	0.08592329
198	0xbd8e7d2f	-0.069574706
199	0x3b228169	0.0024796373
200	0xbd84f419	-0.064918704
201	0x3d434848	0.047676355
202	0xbcd1a673	-0.025592064
203	0x3cd1b099	0.025596904
204	0x3cf6ebe6	0.030141782
205	0xbd57a102	-0.052643783
206	0xbd9a3e39	-0.07531399
207	0x3aa1ed61	0.001235407
208	0x3da109eb	0.0786322
209	0x3cabb331	0.020959469
210	0x3d312b82	0.043254383
211	0xbcdc0969	-0.026859956
212	0xbd4ae91c	-0.049538717
213	0xbcf7cb12	-0.030248199
214	0xbd6a5aeb	-0.057215612
215	0xbc785fa3	-0.01515952
216	0x3cee2abe	0.029073115
217	0x3d2d9fff	0.042388912
218	0x3d59644f	0.053074177
219	0x3b59f700	0.0033258796
220	0x3a976d2f	0.0011552925
221	0xbd473af2	-0.0486402
222	0x3d81bdac	0.06335005
223	0x3db87953	0.09007516
224	0xbc290bb4	-0.010317732
225	0x3c4bad49	0.012431451
226	0x3da6d354	0.081457764
227	0xba6b049e	-0.00089652266
228	0xbd8e6723	-0.069532655
229	0x3b981010	0.0046405867
230	0xbc3e0822	-0.011598619
231	0xbc09b6a0	-0.008405358
232	0xbda650b5	-0.081208624
233	0xbd2d9e66	-0.04238739
234	0x3cebd1b4	0.028786518
235	0x3be734d4	0.007055858
236	0xbc2ea1b1	-0.010658667
237	0x3d4bf667	0.049795534
238	0xbca1b7f0	-0.019741029
239	0x3a15d075	0.00057149614
240	0xbc9871fb	-0.018609038
241	0x3d2b88b5	0.04187842
242	0xbbaf6290	-0.0053523257
243	0xbd91aa91	-0.07112611
244	0x3da07278	0.07834333
245	0x3ccce794	0.025012769
246	0xbd884862	-0.06654431
247	0xbcd2f866	-0.025753211
248	0xbafcd347	-0.001928904
249	0x3d5db2d7	0.054125633
250	0x3d8d41a9	0.06897289
251	0x3d8dbc5d	0.06920693
252	0x3d2d8327	0.042361405
253	0x3d5b9aed	0.053614546
254	0x3e08b3e1	0.13349868
255	0x3d0cc2c9	0.03436545

features.2.bias f4 [16]
0	0xbca42097	-0.020035071
1	0xbc5a6430	-0.013329551
2	0xbcd79060	-0.02631396
3	0xbd2a6a1b	-0.041605096
4	0x3d2ed987	0.04268792
5	0xbc5382af	-0.012909575
6	0xbc959fa5	-0.018264601
7	0xbd5375ce	-0.05162602
8	0xbbfac772	-0.0076531703
9	0xbd1fce21	-0.03901494
10	0xbd8eaa95	-0.0696613
11	0xbd98ecc8	-0.074670374
12	0xbd900ece	-0.07034074
13	0xbb044cc2	-0.0020187353
14	0xbc926d31	-0.017874332
15	0xbc8ec57e	-0.017428156

features.5.weight f4 [16, 16, 5, 5]
0	0x3d47a5f6	0.048742257
1	0x3be004ae	0.0068364954
2	0xbdbe5b43	-0.092947505
3	0xbda4c24f	-0.08044874
4	0xbd3335a1	-0.043752316
5	0xbdee66f6	-0.11640732
6	0xbe04d0f6	-0.12970337
7	0xbdcd474a	-0.10023363
8	0xbd91ca8e	-0.07118712
9	0xbe175456	-0.14778265
10	0xbe2bc31b	-0.16773646
11	0xbd0503b8	-0.03247425
12	0xbdc68fa2	-0.096953645
13	0x3c8cde02	0.017195705
14	0xbde67ae1	-0.11253906
15	0xbe0d011f	-0.13769959
16	0xbcedd591	-0.0290325
17	0xbe1c651b	-0.15272944
18	0xbdbd96ee	-0.09257303
19	0xbbbaa878	-0.0056963526
20	0xbd73c475	-0.059513528
21	0xbda7611e	-0.081728205
22	0xbd1bf151	-0.038071934
23	0xbe0c9221	-0.13727619
24	0xbe120c03	-0.14262395
25	0x3d4d82af	0.050173458
26	0xbda7fc75	-0.08202449
27	0x3c324c4c	0.010882448
28	0x3d591b9b	0.053004842
29	0xbd8fec09	-0.07027442
30	0x3d96b1ea	0.07358153
31	0x3d178843	0.036995184
32	0xbda7c27b	-0.08191391
33	0x3d9b3e62	0.07580258
34	0x3d1e5792	0.038657732
35	0xbd9e225b	-0.077213965
36	0xbc89a040	-0.016800046
37	0x3d6ecd6f	0.058301385
38	0x3be6bfb0	0.007041894
39	0x3c8f6a2a	0.017506678
40	0x3da3954b	0.0798746
41	0x3d8ad029	0.06777985
42	0x3d91153d	0.07084129
43	0x3d9309fb	0.07179638
44	0x3d9372bf	0.071996205
45	0x3d01ad00	0.031659126
46	0xbd1a40db	-0.037659507
47	0xbd911f8d	-0.07086096
48	0x3ca6b6a4	0.020350762
49	0xbd5e08d2	-0.05420763
50	0x3d78975b	0.06069122
51	0xbc8a538a	-0.016885538
52	0x3d89662c	0.06708941
53	0x3bf39f62	0.0074347714
54	0xbd28d706	-0.041220687
55	0xbcd98bee	-0.026555981
56	0x3daf1846	0.08549552
57	0x3d916224	0.07098797
58	0xbd9c7608	-0.076397
59	0x3c2d0029	0.01055912
60	0xba817c8f	-0.000987904
61	0x3c9a65a0	0.018847287
62	0x3c5606a9	0.013063111
63	0xbb2a6cbc	-0.0026004752
64	0xbd2f99e7	-0.042871382
65	0x3de1d3ea	0.110267475
66	0x3c177b67	0.00924573
67	0x3d2b0911	0.041756693
68	0xbd9b3961	-0.075793035
69	0xbd8415e4	-0.06449488
70	0xbd1212cb	-0.035662454
71	0x3ba0d41a	0.004908097
72	0xbc5591c1	-0.013035239
73	0x3d52d48f	0.051472243
74	0xbacacb11	-0.0015471895
75	0x3d8378a7	0.06419497
76	0x3c92d710	0.017924815
77	0x3d70472a	0.058661617
78	0xbda5973e	-0.08085488
79	0x3d917c9e	0.07103847
80	0xbca19ccc	-0.019728087
81	0x3d5859e0	0.052820086
82	0x3d97936f	0.074011676
83	0x39eb6e8e	0.00044905063
84	0x3c204fa2	0.009784611
85	0x3b4da34f	0.0031377857
86	0xbd46c653	-0.04852898
87	0x3d11db24	0.03560938
88	0xbda20d6e	-0.07912718
89	0xbd6bbd83	-0.05755378
90	0x3cb6086b	0.02222081
91	0xbd994c77	-0.07485288
92	0x3c6371d8	0.013882123
93	0x3d97611d	0.0739157
94	0x3d888bd4	0.06667295
95	0xbd92d85c	-0.071701735
96	0x3c3283a4	0.010895643
97	0xbd8a7d30	-0.06762159
98	0xbd0f9cb3	-0.03506155
99	0xbd01ce68	-0.031690985
100	0xbd4601bd	-0.0483415
101	0xbbf5323f	-0.0074827964
102	0xbd03c95c	-0.032174453
103	0x3dc370fb	0.09543034
104	0x3d4e0cea	0.050305285
105	0x3dd285a0	0.10279393
106	0xbd07d36f	-0.033160623
107	0xbc81ff3a	-0.015868772
108	0x3cb4789f	0.022030173
109	0x3d37bd5f	0.044858333
110	0xbd2b5ef4	-0.0418386
111	0x3b4fef73	0.0031728416
112	0x3d9b203d	0.07574508
113	0xbd82f3fe	-0.06394194
114	0xbcd3fea0	-0.02587825
115	0x3c7fdd57	0.015616736
116	0xbd3574be	-0.044300787
117	0x3d95bdd4	0.073115975
118	0xbc58d8f9	-0.013235324
119	0x3d6eb013	0.058273386
120	0x3bb5fa51	0.0055535217
121	0xbb996ace	-0.0046819216
122	0x3d8ce9f5	0.06880561
123	0x3c617ea1	0.013763101
124	0xbc0dec82	-0.008662345
125	0xbd24a7fa	-0.040199257
126	0x3d867205	0.06564716
127	0xbcfcfbff	-0.03088188
128	0xbc804bbf	-0.015661119
129	0x3d20f211	0.039293353
130	0xbc1eaa3b	-0.009684141
131	0x3d964dc5	0.07339052
132	0x3d8bb6a2	0.06821944
133	0x3d7020dd	0.05862509
134	0x3cbf5f62	0.023360912
135	0x3dc54a23	0.09633281
136	0x3db51add	0.088430144
137	0x3d0566d5	0.03256877
138	0xbc20e7e9	-0.009820917
139	0x3d86da66	0.06584625
140	0xbd8f7cda	-0.070062354
141	0xbd86f1d0	-0.06589091
142	0x3da9a6ba	0.08283754
143	0xbd5340b2	-0.05157537
144	0xbd369027	-0.04457107
145	0x3d99710f	0.07492267
146	0xbd41bacc	-0.047297284
147	0xbd25dfe7	-0.040496733
148	0xbd4f78a1	-0.05065215
149	0x3cef3e55	0.029204527
150	0x3db7420b	0.089481436
151	0x3e0d8451	0.13820006
152	0x3e0e92dc	0.1392321
153	0x3c967aeb	0.018369159
154	0x3db926d2	0.090406075
155	0x3a721b95	0.00092356774
156	0x3dd6e7da	0.10493441
157	0xbd368b01	-0.04456616
158	0xbdeb17d8	-0.11479157
159	0xbe1d9e8d	-0.15392514
160	0xbd7f1357	-0.062274303
161	0xbdda6be2	-0.10665108
162	0xbdba1df0	-0.090877414
163	0xbe0d946e	-0.13826153
164	0xbdf21274	-0.11819926
165	0x3e32829f	0.1743264
166	0x3de9d479	0.11417479
167	0x3dfaadb0	0.122401595
168	0x3e5730ed	0.21014757
169	0x3dafa776	0.085768625
170	0x3de87433	0.11350288
171	0x3b0da4f2	0.0021613208
172	0x3d90a0e0	0.070619345
173	0x3c573a0b	0.013136397
174	0x3d5977c3	0.05309273
175	0xbd5499d3	-0.05190451
176	0x3d2b2bf3	0.04178996
177	0x3d0108c1	0.03150249
178	0xbd5936f5	-0.053030927
179	0x3c2efd46	0.010680502
180	0xbca72f91	-0.020408424
181	0xbc952f4e	-0.018211033
182	0x3d3f7abc	0.046747908
183	0x3d648b29	0.055796776
184	0xbcdadd01	-0.026716711
185	0x3c5f524f	0.013630464
186	0xbd12da6e	-0.035852842
187	0x3c9ad2cc	0.018899344
188	0x3d9f2f08	0.077726424
189	0x3d967e6d	0.073483326
190	0x3d295d12	0.041348524
191	0xbdc8de22	-0.098079935
192	0x3d9863f8	0.074409425
193	0x3d104f50	0.03523189
194	0x3d7af977	0.061273064
195	0xbdbf118a	-0.09329517
196	0xbd7ca630	-0.061681926
197	0x3bb2a4d2	0.005451777
198	0xbd904eb0	-0.070462584
199	0xbcbefc02	-0.023313526
200	0x3cdda132	0.027054403
201	0x3d507cb1	0.050900165
202	0x3ce7d156	0.028298061
203	0xbc5a7d8c	-0.013335597
204	0xbce1888c	-0.027530931
205	0x3d077ef1	0.033080045
206	0xbc91d1f9	-0.017800318
207	0xbd2fcfd7	-0.04292282
208	0xbd3a9feb	-0.045562666
209	0xbc9fccbb	-0.019506803
210	0x3cf661c4	0.030075915
211	0x3cf6268a	0.030047674
212	0xbda4f7c0	-0.08055067
213	0x3d89984c	0.067185014
214	0x3d7f4dd8	0.062330097
215	0x3ca0a9e8	0.019612268
216	0xbd4a5599	-0.04939804
217	0xbc915108	-0.017738834
218	0x3d9da43c	0.07697341
219	0x3c4a99e7	0.012365795
220	0xbc61e83e	-0.013788281
221	0xbda74a24	-0.08168438
222	0xbbdf82fb	-0.006821034
223	0x3d8f5f3b	0.07000586
224	0xbd419f1e	-0.047270887
225	0x3cf0fb41	0.029416682
226	0xbd1edf14	-0.038786963
227	0x3d1e2a67	0.038614657
228	0x3cf23fc2	0.029571418
229	0x3d2e895d	0.04261147
230	0x3c797835	0.0152264135
231	0xbda4ed69	-0.08053095
232	0xbd9660ff	-0.07342719
233	0xbd9fe2b0	-0.07806909
234	0x3d6642ff	0.056216236
235	0xbcf0c302	-0.029389862
236	0x3d594c50	0.053051293
237	0x3b7d2c45	0.0038631123
238	0xbdbbf803	-0.09178164
239	0xbd82e05a	-0.06390448
240	0x3da97359	0.08273954
241	0xbd9f2b6f	-0.07771956
242	0x3c5b52cb	0.013386439
243	0xbcbcd94e	-0.023052838
244	0x3db20b53	0.08693566
245	0x3d68529e	0.056719415
246	0xbcee459b	-0.029085925
247	0xbdb5944b	-0.08866175
248	0xbc1ab60e	-0.009442819
249	0xbb9450ac	-0.0045262184
250	0x3d8ec89b	0.06971856
251	0xbdaea2b7	-0.08527129
252	0xbd163c6c	-0.036678717
253	0x3d5573fa	0.052112557
254	0xbd02b4c1	-0.03191066
255	0xbd739eff	-0.059477802

features.5.bias f4 [16]
0	0x3cf943f6	0.030427914
1	0xbcd035cb	-0.025416275
2	0xbca6696e	-0.020313945
3	0x3ca8d2fc	0.020608418
4	0x3cb8710c	0.022514842
5	0xbd6f01e7	-0.058351424
6	0x3caa6e3a	0.020804513
7	0x3d24af3e	0.040206186
8	0x3c1c911a	0.009556079
9	0xbd51b143	-0.05119444
10	0x3cda2adf	0.02663177
11	0xbb25c74c	-0.0025295792
12	0xbb181419	-0.0023205339
13	0x3d26d5e5	0.04073133
14	0xbc1278a8	-0.0089398995
15	0x3cddbc1f	0.027067242

features.7.weight f4 [16, 16, 5, 5]
0	0xbd42cb1a	-0.047556974
1	0x3d26ce87	0.040724304
2	0xbd886b8e	-0.066611394
3	0xbd91c126	-0.07116918
4	0xbd853056	-0.0650336
5	0x3c869c5d	0.016431982
6	0x3d8cdab7	0.06877654
7	0x3d3c8db8	0.04603359
8	0xbc683799	-0.014173412
9	0x3d214b95	0.03937872
10	0x3dba650f	0.09101307
11	0xbc6a1e50	-0.014289454
12	0xbd126895	-0.03574427
13	0xbca5766e	-0.020198073
14	0x3d2b9907	0.041893985
15	0x3d90f8be	0.07078694
16	0xbd829103	-0.06375315
17	0x3cdd69d6	0.027028006
18	0x3cdaf844	0.02672971
19	0x3d7d8678	0.061895818
20	0x3da2e4f3	0.07953825
21	0xbcbed3f8	-0.023294434
22	0x3d87c50e	0.06629382
23	0xbcd4e6cb	-0.025988957
24	0xbd9849cd	-0.074359514
25	0x3cc58df1	0.024115534
26	0xbd006e76	-0.031355344
27	0xbd762317	-0.060092058
28	0x3caac276	0.02084468
29	0x3b41321a	0.0029479326
30	0x3cc28974	0.023747183
31	0x3d3821fe	0.044954292
32	0xbd469c8f	-0.04848915
33	0x3d392bd8	0.04520783
34	0xbd8cb446	-0.06870322
35	0xbd0df810	-0.0346604
36	0xbc6ae92e	-0.014337821
37	0xbd999485	-0.07499031
38	0x3d079907	0.033104923
39	0xbc7a2f65	-0.015270089
40	0x3d70c8e7	0.058785345
41	0xbcab1cd8	-0.020887777
42	0x3d7f23b1	0.062289897
43	0xbd478631	-0.04871196
44	0xbc58d09a	-0.013233328
45	0xbd698f15	-0.05702122
46	0x3c61ae4b	0.013774465
47	0x3d84701f	0.06466698
48	0xbda4ad74	-0.08040896
49	0x3d50e89d	0.051003087
50	0xbda4c3b5	-0.08045141
51	0xbce1e7bb	-0.027576318
52	0xbd880d7b	-0.06643196
53	0xbdb79190	-0.08963311
54	0xbc1c1741	-0.009527029
55	0xbbca3a7d	-0.006171523
56	0xbdb2bd08	-0.08727461
57	0xbccab9e8	-0.02474685
58	0x3c92b6c9	0.017909424
59	0xbd6e4084	-0.058166996
60	0xbc83e12b	-0.01609858
61	0xbd2190f7	-0.03944489
62	0xbc640061	-0.013916106
63	0xbd84c7c8	-0.06483418
64	0xbd6c41df	-0.057680007
65	0x3ce258d0	0.02763024
66	0x3c9f8e4e	0.019477036
67	0xbc9bff7f	-0.019042728
68	0x3d8b9267	0.068150334
69	0x3d50e177	0.05099627
70	0x3d17d039	0.03706381
71	0xbc8dacc4	-0.017294295
72	0xbd1d4add	-0.038401473
73	0xbd7a82f5	-0.061160047
74	0x3d0a50f7	0.03376862
75	0x3d069437	0.032856192
76	0x3cf86585	0.030321846
77	0xbd9285c0	-0.07154417
78	0x3c9f6884	0.019459017
79	0x3d2e8c08	0.042614013
80	0xbd52dded	-0.051481176
81	0x3ce8a6a3	0.028399771
82	0xbc456fad	-0.012050551
83	0xbd698019	-0.05700693
84	0x3d9c5995	0.07634274
85	0xbb643a10	-0.0034824647
86	0xbd119235	-0.035539825
87	0x3d51e6f3	0.05124564
88	0xbc734fbd	-0.014850554
89	0x3d0c87b1	0.034309093
90	0xbd869a7a	-0.06572433
91	0xbcd3a7ec	-0.025836907
92	0x3d734259	0.059389446
93	0xbb4e298f	-0.0031457876
94	0xbd251e07	-0.04031184
95	0x3d96a95a	0.0735652
96	0x3d0873a3	0.033313405
97	0xbcdfa1ca	-0.027298827
98	0xbd3b076a	-0.045661367
99	0xbce36583	-0.027758365
100	0xbdb06dfc	-0.08614728
101	0xbd345177	-0.044023003
102	0x3d94c24d	0.072636224
103	0x3d3d7a9d	0.04625951
104	0x3da6c7ca	0.081435755
105	0xbd3d86e3	-0.046271216
106	0xbced1d0c	-0.028944515
107	0xbd091c3e	-0.0334742
108	0xbc252695	-0.010079999
109	0x3cf2a709	0.029620664
110	0x3cf91fcb	0.030410668
111	0x3d3f70fa	0.046738602
112	0xbd146bc3	-0.036235582
113	0x3be32599	0.006931972
114	0x3d5db30d	0.054125834
115	0x3d81af7b	0.06332298
116	0x3d90079f	0.070327036
117	0xbd9e0659	-0.077160545
118	0xbbeb0d1b	-0.007173193
119	0xbc9321e8	-0.017960504
120	0xbcec0d68	-0.028814986
121	0xbd36d302	-0.044634826
122	0x3bbe10d9	0.0058003482
123	0x3c32f8b4	0.010923553
124	0xbce9e372	-0.028550837
125	0xbc934284	-0.017976053
126	0xbba13bf1	-0.0049204757
127	0xbd438f58	-0.047744125
128	0xbe0e186e	-0.13876507
129	0x3c9f6461	0.019457044
130	0xbbcf3208	-0.006323103
131	0xbdd87456	-0.10569064
132	0x3d24e02f	0.04025286
133	0xbc203073	-0.009777176
134	0xbdc51748	-0.09623581
135	0x3bcd26be	0.006260722
136	0xbd109174	-0.035294965
137	0xbddb778d	-0.10716162
138	0xbd283d93	-0.041074347
139	0xbcd609c6	-0.026127707
140	0xbd4c4068	-0.04986611
141	0x3bea5ab4	0.007151926
142	0xbd375a1c	-0.04476367
143	0x3d05928b	0.032610457
144	0xbdea26d3	-0.114331864
145	0xbdb3d8b3	-0.087815665
146	0x3bd75332	0.006571197
147	0xbce7cfef	-0.028297393
148	0xbd88c54c	-0.066782564
149	0xbc59b918	-0.013288759
150	0xbad760a6	-0.0016432002
151	0x3d6a2341	0.057162527
152	0xbd9e9089	-0.07742412
153	0x3d93fb75	0.07225696
154	0x3d8ac453	0.06775727
155	0x3d529871	0.05141491
156	0x3cada35a	0.021196056
157	0xbd51329c	-0.051073655
158	0x3cfb3a1d	0.030667359
159	0x3d12920a	0.035783805
160	0x3db3fd5b	0.08788558
161	0x3c1c2433	0.009530115
162	0xbd73f822	-0.05956281
163	0x3d78ceb0	0.060743988
164	0xbd84ad00	-0.0647831
165	0x3da588ad	0.080827095
166	0xbd2487f1	-0.040168706
167	0xbcc0057e	-0.023440119
168	0x3d2d4e66	0.042311095
169	0x3d1e99d2	0.038720913
170	0xbc1a63c8	-0.009423204
171	0x3d9cec6b	0.07662281
172	0x3db0d32f	0.0863403
173	0xbbbddeb7	-0.005794372
174	0x3a26c72e	0.00063620775
175	0x3da20b93	0.07912364
176	0xbd389b72	-0.04507012
177	0x3ccfcedc	0.025367193
178	0x3d1cefea	0.038314737
179	0xbd4f9ad8	-0.05068478
180	0xbd6de4ff	-0.058079716
181	0x3c4678e8	0.012113787
182	0x3da051a6	0.07828073
183	0x3c1f99ab	0.009741227
184	0xb98f56e8	-0.00027339836
185	0xbce1daeb	-0.027570209
186	0xbd127c9b	-0.035763364
187	0x3da4c856	0.080460235
188	0x3d4a9750	0.04946071
189	0x3c97f19a	0.018547822
190	0x3d597b39	0.05309603
191	0x3d231180	0.03981161
192	0x3d929133	0.07156601
193	0x3d9b5646	0.07584815
194	0x3d4abf33	0.049498748
195	0xbda5d3b0	-0.08097017
196	0xbcbf0cdd	-0.023321563
197	0xbcd43912	-0.02590612
198	0xbd9e6393	-0.07733836
199	0x3d7aab5a	0.06119857
200	0xbdb6d691	-0.08927644
201	0xbd2829ae	-0.041055374
202	0xbd5c9c69	-0.0538601
203	0xbd5af0d0	-0.053452313
204	0xbdc7ee42	-0.09762241
205	0x3d015c09	0.031581912
206	0xbc8dfd8a	-0.01733281
207	0xbdbfe8e8	-0.09370595
208	0xbdebb747	-0.11509567
209	0xbde63644	-0.11240819
210	0x3c15f4c8	0.009152599
211	0x3a417fac	0.00073813903
212	0x3cbc0194	0.022949971
213	0x3d37db59	0.04488692
214	0xbdac9994	-0.0842773
215	0xbb42fa4b	-0.0029751237
216	0xbdaebe1f	-0.085323565
217	0x3ccde743	0.025134688
218	0x3b0da176	0.002161113
219	0xbda99836	-0.08280985
220	0x3ca4f3bc	0.020135753
221	0xbca3ccda	-0.019995142
222	0x3d2275fc	0.0396633
223	0xbb545a1f	-0.003240235
224	0xbd6aaf43	-0.05729605
225	0xbcec127f	-0.028817413
226	0xbd096e4c	-0.033552453
227	0xbd048d45	-0.032361288
228	0xbc502603	-0.012704375
229	0x3d85065f	0.06495356
230	0x3d6c6e7a	0.057722546
231	0x3c4eef33	0.012630272
232	0xbdc61d85	-0.09673599
233	0xbbee56ef	-0.007273547
234	0xbce7db88	-0.028302923
235	0x3c745a65	0.01491413
236	0xbcafd85f	-0.021465478
237	0xbc98bf0a	-0.018645782
238	0xbd20e773	-0.039283227
239	0xbd1a3232	-0.037645526
240	0xbc003ba3	-0.0078267185
241	0xbd7b18e7	-0.061303046
242	0xbce472df	-0.027886806
243	0x3d8785be	0.06617306
244	0x3d17b7fe	0.037040703
245	0xbcbff4da	-0.023432184
246	0x3d83eab4	0.064412504
247	0x3d7942ed	0.06085484
248	0xbce3116b	-0.027718266
249	0xbd94af3e	-0.07259987
250	0xbcef1231	-0.029183479
251	0x3d4854ef	0.048909124
252	0xbd84ae89	-0.064786024
253	0x3d37faf7	0.044917073
254	0x3d9eaac0	0.07747412
255	0x3ca6b110	0.020348102

features.7.bias f4 [16]
0	0x3d5705b2	0.052495666
1	0x3bb2d566	0.005457568
2	0x3c95421c	0.01822
3	0x3c481f08	0.01221443
4	0xbc83a315	-0.016068975
5	0xbca5b830	-0.020229429
6	0xbd71e7c2	-0.059058912
7	0x3d087757	0.033316936
8	0x3c86daed	0.016461814
9	0x3cbd6e11	0.023123773
10	0x3d458da1	0.04823077
11	0xbc6c1ec9	-0.014411637
12	0xbbf27d5c	-0.007400198
13	0x3bd0f23d	0.0063765333
14	0xbc9bcdba	-0.019018997
15	0x3c30924c	0.010777067

features.10.weight f4 [32, 16, 5, 5]
0	0x3c821085	0.015877018
1	0xbd917bd0	-0.071036935
2	0xbd895a7b	-0.06706711
3	0x3d2d8fbb	0.0423734
4	0x3cf6d6ba	0.030131686
5	0xbd312ca5	-0.043255467
6	0x3c9a97d3	0.018871224
7	0x3bb2aee2	0.0054529766
8	0xbd93f833	-0.072250746
9	0x3a63442a	0.000866952
10	0x3c4153f3	0.0117998
11	0xbd8b8ba1	-0.068137415
12	0xbd5704ae	-0.052494697
13	0xbd788ab9	-0.06067917
14	0xbc08d20f	-0.008350863
15	0x3ccb502e	0.024818506
16	0xbd39f648	-0.045400888
17	0xbd1568c5	-0.03647687
18	0xbd9ad945	-0.07560972
19	0xbd5ba6f5	-0.05362602
20	0xbd2bc721	-0.04193795
21	0xbd3c8c05	-0.04603197
22	0xbcf22903	-0.029560572
23	0xbcceb1b0	-0.025231212
24	0xbd0d0260	-0.034426093
25	0x3c2c9218	0.010532878
26	0x3d9f2255	0.0777022
27	0x3d7e75bc	0.062124
28	0xbca65b99	-0.020307349
29	0x3d445c3c	0.047939524
30	0xbca818de	-0.02051967
31	0x3d0b2600	0.033971786
32	0x3a4e2f3e	0.0007865316
33	0x3becaa06	0.007222417
34	0x3c9f542e	0.01944932
35	0x3cbf7eb3	0.023375845
36	0x3b11036d	0.0022127286
37	0x3dc38a6c	0.09547886
38	0xba3b95ea	-0.0007155823
39	0xbd64c61f	-0.055853005
40	0x3d72faf0	0.059321344
41	0xbd254172	-0.040345617
42	0x3cb14a9f	0.021642027
43	0x3cd327f3	0.025775885
44	0xbdb56bec	-0.08858475
45	0xbcd6bf10	-0.026214153
46	0xbd5d5949	-0.054040227
47	0xbd839deb	-0.06426605
48	0xbd8f28ed	-0.06990228
49	0x3c61f84e	0.013792111
50	0xbcbb7aa8	-0.022885635
51	0xbd08d318	-0.03340444
52	0xbc63d2bc	-0.013905223
53	0xbc8a0dfd	-0.016852373
54	0x3c3eb8fe	0.011640785
55	0xb8fe1737	-0.00012115988
56	0xbd2936d5	-0.041312058
57	0xbd6018fb	-0.054711323
58	0xbd1b4bd7	-0.037914123
59	0xbcb776a1	-0.022395434
60	0xbd691725	-0.056906838
61	0xbd180992	-0.037118502
62	0x3cd5e851	0.026111754
63	0xbd432e56	-0.04765161
64	0x3d2569a0	0.040383935
65	0xbd01b815	-0.031669695
66	0xbd4b1b3e	-0.049586527
67	0xbd27c37f	-0.040957924
68	0xbcfd5db9	-0.03092848
69	0xbceb67ce	-0.028736021
70	0xbdab77f3	-0.08372488
71	0xbd68ee9c	-0.05686818
72	0x3d2893e0	0.04115665
73	0xbcf22c05	-0.029562006
74	0xbcf951f9	-0.030434595
75	0xbd84fb77	-0.064932756
76	0xbbbb3c19	-0.0057139513
77	0xbd9e114f	-0.07718145
78	0x3d848875	0.064713396
79	0x3d929932	0.07158126
80	0xbd11b199	-0.03556976
81	0xbd927dcf	-0.07152902
82	0xbd950a02	-0.072772995
83	0xbdb8decf	-0.09026872
84	0xbd9a4fee	-0.07534777
85	0xbd741c9f	-0.059597608
86	0xbc9e9b50	-0.019361168
87	0xbc8f4b0a	-0.017491836
88	0x3999bf96	0.00029325177
89	0x3c9b7691	0.018977435
90	0x3dce1bff	0.100639336
91	0x3df540e4	0.119752675
92	0x3dd3fafe	0.10350607
93	0x3c24ebee	0.010066016
94	0xbd10d0cb	-0.03535537
95	0xbd2def8e	-0.042464785
96	0x3d3d93ee	0.046283655
97	0x3d89f9d0	0.06737101
98	0x3cab8649	0.020938056
99	0xbda4879f	-0.0803368
100	0xbd0321de	-0.03201472
101	0xbd5dcf9b	-0.054153066
102	0xbcba0900	-0.02270937
103	0xbd91a925	-0.0711234
104	0xbd9895fe	-0.07450484
105	0xbd9a6962	-0.075396314
106	0xbd99fa86	-0.07518487
107	0x3da0a204	0.07843402
108	0x3d0b5950	0.034020722
109	0xbc952003	-0.018203741
110	0x3d21974c	0.03945093
111	0x3d24f6f7	0.040274587
112	0x3c3f9a8f	0.0116945645
113	0x3c7c17e3	0.015386554
114	0x3be6d8f3	0.0070449053
115	0xbd8450b8	-0.064607084
116	0xbca3ed8d	-0.020010734
117	0x3d8138fe	0.063096985
118	0xbc0e2f67	-0.008678294
119	0xbca86d41	-0.020559909
120	0xbd6caaa8	-0.057779938
121	0xbd68b879	-0.05681655
122	0x3d08851c	0.033330068
123	0x3d82fa34	0.06395379
124	0xbd943d7f	-0.07238292
125	0x3c783828	0.015150107
126	0x3e0e7f9c	0.13915867
127	0x3d18757c	0.037221417
128	0xbd09ebd0	-0.033672154
129	0xbd86ab6d	-0.065756656
130	0xbc670726	-0.014100825
131	0xbb9523cb	-0.004551386
132	0xbd4f5ccf	-0.05062562
133	0xbc343548	-0.010999031
134	0xbd68354a	-0.056691445
135	0x3d9c48e4	0.0763109
136	0xbd72eb7e	-0.059306614
137	0x3d6150fc	0.055008873
138	0xbda9ec22	-0.08296992
139	0x3c169713	0.009191292
140	0x3d0676ef	0.032828268
141	0xbc1ce636	-0.009576371
142	0x3dfe3cbc	0.12413928
143	0x3d3abafd	0.045588482
144	0xbd81d6c0	-0.063397884
145	0xbd8b2326	-0.067938134
146	0x3ca14d9e	0.019690331
147	0xbc8739e3	-0.016507095
148	0x3da90c1d	0.082542636
149	0x3c58d355	0.013233979
150	0xbdc4b31b	-0.09604474
151	0xbd04140d	-0.032245684
152	0xbbf34a4c	-0.0074246284
153	0xbd467817	-0.04845437
154	0xbe46e179	-0.19421948
155	0xbd5ab720	-0.053397298
156	0xbd5cd247	-0.053911474
157	0xbc3c7598	-0.011502646
158	0xbdf2cf82	-0.11855985
159	0xbe4d3f00	-0.20043564
160	0x3d7150d3	0.05891497
161	0xbc1e73ca	-0.009671161
162	0x3c4c1a33	0.012457418
163	0x3d66a952	0.05631382
164	0xbc69d9e5	-0.0142731415
165	0x3c858f38	0.016303644
166	0xbc6ed3a2	-0.014576824
167	0x3dc6dab1	0.09709681
168	0xbcd491a7	-0.025948359
169	0xbb6be353	-0.003599365
170	0x3e10d433	0.14143448
171	0xbd028c62	-0.03187216
172	0xbd3baf7e	-0.04582166
173	0xbb817e16	-0.003951798
174	0xbcbb90c7	-0.022896184
175	0xbd1fcec9	-0.039015565
176	0xbd1741fa	-0.036928155
177	0x3d831e76	0.06402294
178	0xbd09d4af	-0.033650097
179	0xbc14a499	-0.009072446
180	0x3c4016a8	0.011724152
181	0xbdcce208	-0.100040495
182	0xbcf5d7f5	-0.030010203
183	0xbbc92a92	-0.006139108
184	0xbd186041	-0.03720117
185	0xbdadb349	-0.084814616
186	0x3d06530b	0.03279404
187	0x3d4be302	0.04977704
188	0x3c2dac55	0.010600169
189	0xbd5ffbc7	-0.054683473
190	0xbc90e7ff	-0.01768875
191	0xbb9831c5	-0.004644605
192	0xbd8772b0	-0.06613672
193	0xbd9a98dc	-0.07548687
194	0xbba84620	-0.0051353127
195	0xbd353c83	-0.04424716
196	0xbd1a9729	-0.037741814
197	0xbcbded2b	-0.02318438
198	0x3c3959da	0.011312926
199	0x3cc4dbc7	0.02403058
200	0x3d153502	0.036427505
201	0x3dc12b0e	0.0943204
202	0x3bad71b2	0.0052930946
203	0xbcc751f5	-0.024331072
204	0xbcbf0aa4	-0.023320504
205	0xbc039fc7	-0.008033699
206	0xbd918364	-0.07105139
207	0x3cc603b4	0.024171688
208	0xbd681eb0	-0.05666989
209	0x3de31a49	0.11088998
210	0xbdb0d290	-0.086339116
211	0xbd96f34c	-0.07370624
212	0x3dbd94d5	0.09256903
213	0x3dba555c	0.09098312
214	0xbe029337	-0.1275147
215	0xbd1cd211	-0.038286272
216	0x3cbc18ac	0.022960983
217	0x3d9ae2cf	0.075627916
218	0x3c1815a6	0.009282505
219	0xbcb4c8ba	-0.02206837
220	0x3d90fdc9	0.07079656
221	0x3dd2d76f	0.10294997
222	0x3d0597f2	0.03261561
223	0x3cb0ae85	0.021567592
224	0xbcb893ed	-0.022531474
225	0xbe0143ed	-0.12623568
226	0xbd9a00e2	-0.075197
227	0xbc4ccdb4	-0.012500215
228	0xbd52138c	-0.051288173
229	0x3b9a016e	0.0046998775
230	0xbd06f359	-0.03294692
231	0x3d0fc799	0.03510246
232	0x3d24c2c8	0.04022482
233	0x3ded8074	0.11596766
234	0x3c637d1c	0.013884809
235	0x3e41cfcf	0.18926929
236	0x3de9eb94	0.11421886
237	0x3d69c1b4	0.057069495
238	0x3d4273f1	0.04747385
239	0x3e0ab4b5	0.13545497
240	0x3db86cfa	0.09005161
241	0x3ddeb14d	0.10873661
242	0xbd8a08a2	-0.06739928
243	0x3dabe99b	0.08394166
244	0x3d058383	0.032596122
245	0xbd916fca	-0.071014
246	0xbd7461cf	-0.05966359
247	0x3d009209	0.03138927
248	0xbd082c5b	-0.033245426
249	0xbd58cdd8	-0.052930683
250	0x3ac7c3be	0.0015240831
251	0x3d042261	0.03225935
252	0x3d1cf6c2	0.038321264
253	0xbd0c9968	-0.034325987
254	0x3cde1568	0.027109817
255	0x3d57d070	0.052689016

features.10.bias f4 [32]
0	0x3c1d9ff5	0.009620656
1	0xbcd7d254	-0.02634541
2	0x3b364270	0.0027810596
3	0xbc6b44ba	-0.014359647
4	0x3a88763c	0.0010411213
5	0x3d804c17	0.06264513
6	0xbcfbe6ee	-0.030749764
7	0x3d66657d	0.05624913
8	0xbd2bcc51	-0.0419429
9	0x3c5489ec	0.012972336
10	0xbc318245	-0.010834281
11	0x3c29a3cf	0.010353996
12	0xbc857bba	-0.016294349
13	0xba32a764	-0.0006815104
14	0x3ce0d2d5	0.027444283
15	0x3c625f22	0.013816627
16	0xbba54cb9	-0.0050445464
17	0x3d412109	0.047150645
18	0xbcf53210	-0.029931098
19	0x3d015135	0.031571586
20	0xbcd5c4c9	-0.026094811
21	0x3d656316	0.0560027
22	0xbce332c9	-0.027734177
23	0xbd5cd054	-0.053909615
24	0x3d2b6ac0	0.04184985
25	0x3d18ff82	0.037353046
26	0x3c7e3ef5	0.01551794
27	0x3d3e5003	0.046463024
28	0xbd212f64	-0.039351836
29	0x3c24ea38	0.010065608
30	0x3bd59062	0.006517456
31	0xbcda552c	-0.026651941

features.12.weight f4 [32, 32, 5, 5]
0	0x3d938a6d	0.07204137
1	0x3da290e6	0.079377934
2	0x3ddaaeeb	0.10677894
3	0x3d721ea8	0.059111267
4	0xbda02f86	-0.078215644
5	0xbc6d157d	-0.014470455
6	0xbc12cb8d	-0.008959663
7	0x3d7536f4	0.05986686
8	0x3b705a3e	0.0036674882
9	0xbd820c84	-0.063500434
10	0xbcae5bd1	-0.021284016
11	0x3b2fce93	0.0026826009
12	0x3dd4b4a9	0.10386021
13	0x3d9685f6	0.0734977
14	0xbd032745	-0.032019872
15	0xbdeb8146	-0.11499266
16	0xbd95bfea	-0.07311995
17	0xbde13681	-0.10996724
18	0x3e137e17	0.14403568
19	0xbd138005	-0.03601076
20	0xbdeb3a51	-0.11485732
21	0xbdc472ad	-0.09592185
22	0xbd508550	-0.050908387
23	0xbde7e2d2	-0.113225594
24	0xbd919252	-0.071079865
25	0xbc1f287a	-0.00971424
26	0xbd45fe61	-0.048338298
27	0xbcb96170	-0.02262947
28	0x3c3d7ed6	0.011565885
29	0x3d4114d0	0.04713899
30	0xbd2890a3	-0.04115356
31	0xbc80e365	-0.01573343
32	0x3c9a43da	0.018831182
33	0x3d217652	0.03941948
34	0xbcfe7d6e	-0.031065669
35	0xbcb184fc	-0.021669857
36	0x3dbc6097	0.091981106
37	0x3a3f3d30	0.00072951894
38	0xbcd7fa7b	-0.026364556
39	0xbc759328	-0.014988698
40	0x3d31627b	0.04330681
41	0xbc3d305a	-0.011547172
42	0x3d9c7f68	0.07641488
43	0xb4c46640	-3.6582242e-07
44	0x3c6b5e81	0.014365793
45	0x3c0a409f	0.008438258
46	0x3ca67e86	0.020324003
47	0x3d977ff4	0.07397452
48	0xbd5dde69	-0.054167185
49	0x3bd19b2d	0.006396672
50	0x3d52eb4b	0.051493924
51	0xbc051c2e	-0.008124394
52	0x3c92e876	0.017933112
53	0x3cca797d	0.024716133
54	0xbc234bf0	-0.009966835
55	0xbd5618d3	-0.052269768
56	0xbc33d8a8	-0.010976948
57	0x3c54fdf6	0.013000002
58	0xbc83cff1	-0.016090365
59	0x3bf953dc	0.007608874
60	0xbd3bc18a	-0.04583887
61	0x3c8a9fef	0.016921965
62	0xbcc80bc5	-0.024419675
63	0xbd39d9eb	-0.04537384
64	0x3c668c72	0.014071571
65	0x3a0b133e	0.00053052965
66	0xbd2830c1	-0.04106212
67	0xbcbfbfc5	-0.023406873
68	0xba8b485d	-0.0010626424
69	0x3ad6fbaf	0.0016401912
70	0x3cb50d3f	0.022101043
71	0xbc731a34	-0.01483779
72	0x3d5e51a9	0.054277096
73	0x3d5bc4b0	0.053654373
74	0xbcab0fd0	-0.020881563
75	0x3d51691f	0.051125642
76	0xbd895cc3	-0.06707146
77	0xbde926da	-0.113843635
78	0xbe3c4a05	-0.18387611
79	0xbd8c96ad	-0.068646766
80	0xbc1c2be0	-0.009531945
81	0xbd973834	-0.07383767
82	0xbd4ae1cc	-0.049531743
83	0xbe249eb1	-0.16076161
84	0xbe064898	-0.1311363
85	0xbd0e8a88	-0.034800082
86	0x3e421ae8	0.18955576
87	0xbdea0d05	-0.114282645
88	0xbb9775b6	-0.0046221865
89	0xb8aa9080	-8.133147e-05
90	0xbe3a991c	-0.18222469
91	0xbdead7d2	-0.11466946
92	0xbd0f68a0	-0.035011888
93	0xbd93806f	-0.07202231
94	0xbd02571d	-0.03182136
95	0xbddf7863	-0.10911634
96	0xbe114fe1	-0.14190628
97	0xbdf2452d	-0.118296005
98	0xbd698a38	-0.05701658
99	0x3ba330d1	0.0049801846
100	0xbd157c92	-0.036495753
101	0x3d1d748e	0.038441233
102	0xbc8b99d7	-0.01704113
103	0xbbb42ab9	-0.005498257
104	0x3cabe61f	0.020983754
105	0x3cee0da0	0.029059231
106	0x3c94abb6	0.018148284
107	0x3c7d5931	0.015463159
108	0x3d2ca6e2	0.04215134
109	0xbb04cc5f	-0.0020263416
110	0xbd17faca	-0.037104405
111	0x3c5de795	0.013543983
112	0xbcc9999d	-0.024609381
113	0x3b004742	0.0019573723
114	0x38926c0e	6.981949e-05
115	0xbd310520	-0.04321778
116	0xbc72bd2c	-0.01481561
117	0x3d3de04b	0.04635648
118	0x3d89344a	0.066994265
119	0xbd001f22	-0.03127969
120	0x3c7a5c7f	0.015280842
121	0xbcc1c3b1	-0.023652883
122	0x3ccf9a94	0.025342263
123	0x3d8a4d45	0.06753019
124	0x3ca005c3	0.019533997
125	0x3d7282a4	0.05920662
126	0x3d7de3e1	0.0619849
127	0x3d4c0a88	0.04981473
128	0xbc85b8fa	-0.016323555
129	0xbca3b598	-0.019984052
130	0xbd2e03f8	-0.042484254
131	0xbc80be6f	-0.015715806
132	0x3d83310e	0.06405841
133	0x3bb42921	0.005498067
134	0xbcaee3e1	-0.021348896
135	0xbba6bfea	-0.005088796
136	0x3d264777	0.040595498
137	0xbd0c3cc4	-0.034237638
138	0xbcaf6936	-0.021412473
139	0xbcfa80bc	-0.030578963
140	0x3d28fa6f	0.041254457
141	0x3c85198f	0.016247539
142	0xbd3172b8	-0.043322295
143	0xbc3699b8	-0.011145048
144	0xbd391c10	-0.045192778
145	0x3d1b23a2	0.03787578
146	0xbd1db743	-0.03850485
147	0x3c934ce2	0.017980997
148	0xbc360fe5	-0.011112188
149	0x3d52b3da	0.05144105
150	0x3ccae1cf	0.024765877
151	0xbb67d103	-0.0035372383
152	0xbacc9257	-0.0015607578
153	0x3d733a3c	0.05938171
154	0x3ce391cd	0.027779484
155	0xbd080e0f	-0.033216532
156	0xbd0dba44	-0.034601465
157	0x3c30e3c2	0.010796489
158	0x3ce52830	0.027973264
159	0x3d0e7cbe	0.034786932
160	0xbda7cc4c	-0.081932634
161	0xbd146c92	-0.036236353
162	0x3d1d7b1b	0.03844748
163	0x3d459e5c	0.048246726
164	0x3d0808e2	0.033211596
165	0xbd5e4abc	-0.05427049
166	0xbd2e1d16	-0.042508207
167	0xbda62fde	-0.08114599
168	0xbd68e41e	-0.056858175
169	0x3c54a6f6	0.01297926
170	0xbd715102	-0.058915146
171	0xbc05646a	-0.008141616
172	0xbd4b9edf	-0.04971206
173	0x3d58bf5b	0.052916866
174	0x3c32b698	0.010907792
175	0xbc86e037	-0.016464336
176	0x3dcd21c2	0.100162044
177	0x3d421f6d	0.04739325
178	0xbd3021e9	-0.04300109
179	0xbc369fdc	-0.011146512
180	0xbd2c91bb	-0.042131167
181	0x3d292f59	0.04130492
182	0x3d2b1701	0.041769985
183	0x3d148cc8	0.036267072
184	0x3ca613b3	0.020273065
185	0xbae61135	-0.0017552736
186	0x3b91979c	0.004443122
187	0xba154fca	-0.00056957884
188	0xbd6033c4	-0.054736868
189	0x3cfd6f84	0.030936964
190	0xbd4c3034	-0.049850658
191	0xbd0de2b1	-0.034640018
192	0xbcd54b53	-0.026036894
193	0x3d33b603	0.04387475
194	0x3d0ea2df	0.034823295
195	0xbcc73333	-0.024316406
196	0xbd3689a1	-0.044564847
197	0xbcd9cf35	-0.026588062
198	0x3cec52d0	0.028848082
199	0xbc4d9a9a	-0.012549067
200	0xbcf790c8	-0.030220404
201	0xbd06e5f7	-0.032934155
202	0xbd4d81f6	-0.05017277
203	0xbd04c734	-0.032416537
204	0x3c0ebb12	0.008711593
205	0xbdc13e07	-0.09435659
206	0xbe28c92b	-0.1648299
207	0xbd1e74b6	-0.038685523
208	0xbd377380	-0.044787884
209	0xbd2d0a67	-0.04224625
210	0x3d4b2a2d	0.04960077
211	0x3d54463b	0.05182479
212	0x3d2cbf54	0.042174652
213	0xbd2e6454	-0.04257615
214	0x3a7a534c	0.00095491554
215	0xbd207756	-0.039176308
216	0x3d5d773d	0.054068793
217	0xbd8b4616	-0.06800477
218	0x3d95f109	0.073213644
219	0x3d673641	0.056448225
220	0xba1d31e3	-0.00059965084
221	0x3d8720e7	0.065980725
222	0x3d115143	0.035477888
223	0x3db67252	0.089085236
224	0x3cd5b107	0.02608539
225	0x3db65c4e	0.089043245
226	0x3d360dc4	0.04444672
227	0x3d24a4a7	0.040196087
228	0x3d496950	0.0491727
229	0x3da8d928	0.08244544
230	0x3bd61a9d	0.0065339343
231	0xbcc61cf8	-0.024183735
232	0x3dfea874	0.12434474
233	0x3d4310e0	0.047623515
234	0x3c611ab6	0.013739279
235	0x3d86e05a	0.065857604
236	0x3c5c32f1	0.01343988
237	0x3e8661ea	0.26246578
238	0x3e0fe54c	0.14052314
239	0xbc444647	-0.011979646
240	0xbe0746eb	-0.13210647
241	0xbdbe6733	-0.092970274
242	0xbd6f3e68	-0.058409125
243	0xbdad4a27	-0.08461409
244	0xbd81aefe	-0.06332205
245	0xbdd65477	-0.10465329
246	0xbd697264	-0.056993857
247	0xbce7d7c1	-0.028301122
248	0xbd26c32b	-0.04071347
249	0x3d21879d	0.03943597
250	0x3d2c1c39	0.042019103
251	0xbc281625	-0.010259186
252	0x3c107e42	0.008819165
253	0xbd19cb5b	-0.03754745
254	0x3d3b3c34	0.04571171
255	0xbd52e839	-0.051490996

features.12.bias f4 [32]
0	0xbc38f376	-0.011288514
1	0xbd417c8b	-0.047237914
2	0x3b2c33bb	0.002627595
3	0xbc589a7f	-0.0132204285
4	0xbcd01b51	-0.02540365
5	0xbc5ef090	-0.013607159
6	0x3bdc822e	0.006729386
7	0x3c94d18b	0.018166324
8	0x3d5f2fb3	0.05448885
9	0x3c739349	0.0148666585
10	0xbc70a4a9	-0.014687696
11	0x3b9e9ad6	0.004840235
12	0x3d6aff8f	0.057372626
13	0x3c039b0b	0.008032571
14	0x3c4f0333	0.01263504
15	0xbcee4909	-0.02908756
16	0x3b21c2e2	0.002468281
17	0x3d5fe242	0.054659136
18	0x3d3ebacc	0.046564862
19	0xbb0d97e6	-0.002160543
20	0x3d63b35e	0.05559098
21	0x3d1655df	0.036702987
22	0x3cb8ba5a	0.022549797
23	0x3cbb2ce4	0.022848554
24	0x3d8846e2	0.06654145
25	0xbd40577b	-0.046958428
26	0x3d5af3e0	0.053455234
27	0x3c193c23	0.009352717
28	0xbb2bfad9	-0.0026242046
29	0xbc928158	-0.017883942
30	0x3cd28071	0.025696011
31	0x3c0a07e6	0.008424735
